models/GuitarLSTM/GuitarLSTM.onnx (onnx, 49062 bytes, 8 tensors)

sequential/dense/MatMul/ReadVariableOp:0 f4 [36, 1]
0	0x3dfbd28c	0.12296018
1	0x3e825586	0.25455874
2	0x3b0be8b0	0.002134841
3	0xbe9b2b8c	-0.3030666
4	0x3966cd13	0.00022010905
5	0xbd8d1c44	-0.06890157
6	0x3d6b8151	0.057496373
7	0x3d972f22	0.07382037
8	0xbe305732	-0.17220762
9	0x3dc9f69a	0.09861489
10	0xbd55fd9e	-0.05224382
11	0x3917ae8a	0.00014465503
12	0x3e9bfe71	0.3046756
13	0xbe2591f1	-0.16168953
14	0xbb6ca01a	-0.003610617
15	0xbe178eaf	-0.14800523
16	0xbdc033af	-0.09384858
17	0x3db22753	0.08698907
18	0x3e813dc7	0.25242445
19	0x3e426c51	0.18986632
20	0x3c256111	0.010093943
21	0xbe1c2c96	-0.15251383
22	0x3b04ce1a	0.0020264448
23	0xbd4c2911	-0.04984385
24	0xba8bd16e	-0.0010667273
25	0x398293f0	0.00024905754
26	0x3d65c1dd	0.056093086
27	0x3c158021	0.009124787
28	0x3dced108	0.10098463
29	0xbed662d1	-0.41872266
30	0x3cc03b49	0.02346577
31	0x3e301512	0.17195538
32	0x3e7f28b2	0.24917868
33	0x3d2c8a0a	0.04212383
34	0x3cc3630a	0.023850936
35	0xbe832083	-0.25610742

sequential/conv1d_1/Conv1D/ExpandDims_1:0 f4 [16, 16, 1, 12]
0	0xbd6895c8	-0.056783468
1	0xbd88cedc	-0.0668008
2	0xbced2d90	-0.02895239
3	0x3dba1018	0.09085101
4	0xbc9edc80	-0.019392252
5	0xbdac1180	-0.08401775
6	0xbdc461d4	-0.09588972
7	0xbc0939e0	-0.008375615
8	0xbde41a9c	-0.11137888
9	0xbd7ce670	-0.0617432
10	0x3dc9bacc	0.09850082
11	0xbd27c5f8	-0.040960282
12	0xbc6872e0	-0.014187545
13	0x3d055198	0.032548517
14	0x3d88a5fc	0.06672284
15	0xbdf7b898	-0.12095755
16	0xbd208870	-0.039192617
17	0x3decc9da	0.11561938
18	0x3cce58c0	0.025188804
19	0xbdea0fb8	-0.11428779
20	0xbd708588	-0.058721095
21	0xbd53b578	-0.051686734
22	0xbcfad790	-0.030620366
23	0xbde48164	-0.11157492
24	0xbdef3158	-0.116793334
25	0x3dcfa57c	0.101389855
26	0x3d88b83c	0.06675765
27	0x3dfb4ee0	0.122709036
28	0xbd14cdd0	-0.03632909
29	0xbe8f2414	-0.27957213
30	0x3d83bb98	0.06432265
31	0x3c9f0ce0	0.019415319
32	0xbd1351e0	-0.035966754
33	0x3c3f9360	0.011692852
34	0x3d120a00	0.035654068
35	0xbda2a99c	-0.07942507
36	0xbd8d2f40	-0.06893778
37	0x3d5f3aa0	0.05449927
38	0xbbf86a00	-0.0075809956
39	0x3dc58c60	0.09645915
40	0xbd1e2660	-0.038610816
41	0x3e039879	0.12851132
42	0x3b13a080	0.0022526085
43	0xbcfaed70	-0.030630797
44	0x3db2ccf0	0.08730495
45	0xbc6197c0	-0.01376909
46	0x3d377290	0.04478699
47	0x3c6e4b40	0.014544308
48	0xbc5c4220	-0.0134435
49	0xbdc62b98	-0.096762836
50	0xbcb8f350	-0.022576958
51	0x3c4a9e60	0.012366861
52	0x3dd55e20	0.104183435
53	0xbdbcc121	-0.09216524
54	0xbc5fad00	-0.013652086
55	0xbda76550	-0.08173621
56	0xbdf49114	-0.11941734
57	0x3d0408b8	0.032234877
58	0x3d2e4540	0.04254651
59	0x3b75f280	0.0037528574
60	0xbdf0a4a0	-0.1175015
61	0x3dd1d634	0.10245934
62	0x3de9b934	0.11412278
63	0xbdd84500	-0.10560036
64	0xbd7c6b30	-0.06162566
65	0xbd8197d0	-0.06327784
66	0xbc5a1a40	-0.013311923
67	0xbcae8b90	-0.021306783
68	0x3db8e644	0.09028295
69	0x3cc78d80	0.024359465
70	0x3d334d78	0.04377505
71	0xbc987e90	-0.018615037
72	0xbc823920	-0.01589638
73	0x3de60f28	0.112333596
74	0x3d956610	0.072948575
75	0x3ccb5bf0	0.024824113
76	0xbdc8db4c	-0.098074526
77	0xbe34551b	-0.1761059
78	0x3d44d7b8	0.048057288
79	0x3c876740	0.016528726
80	0xbdc8962c	-0.09794268
81	0x3da016a8	0.07816821
82	0x3d9e246c	0.07721791
83	0x3d7ec0b8	0.06219551
84	0x3ca0c220	0.019623816
85	0x3d3ca9e0	0.046060443
86	0xbd318598	-0.043340296
87	0x3da72588	0.081614554
88	0xbbab3a40	-0.00522545
89	0x3e09fd0b	0.13475434
90	0xbd8eb0bc	-0.06967303
91	0x3de160f8	0.110048234
92	0x3be80600	0.0070807934
93	0x3dd9bb8c	0.10631475
94	0xbde6815c	-0.11255142
95	0xbd1d5db8	-0.038419455
96	0x3c936680	0.017993212
97	0x3dd00ce4	0.10158709
98	0xbcde59b0	-0.027142376
99	0xbaa75d00	-0.0012768805
100	0x3c516a80	0.012781739
101	0xbe876d7f	-0.26450726
102	0xbcd8fe20	-0.026488364
103	0xbd621140	-0.055192232
104	0xbce87e10	-0.028380424
105	0x3ddbd980	0.10734844
106	0x3dd3b0c0	0.10336447
107	0xbd8f0168	-0.0698269
108	0x3df58430	0.119881034
109	0xbdbf7894	-0.0934917
110	0xbdca7d98	-0.09887236
111	0xbcf53850	-0.029934078
112	0x3cd79ea0	0.026320755
113	0xbe71b44b	-0.23603933
114	0xbd066a70	-0.03281635
115	0xbdbf8590	-0.09351647
116	0x3dfa9eb0	0.122372985
117	0xbc5f83e0	-0.013642281
118	0x3afc6d00	0.0019258559
119	0xbda88500	-0.08228493
120	0x3c300bc0	0.010744989
121	0x3dd9c368	0.10632974
122	0xbce167c0	-0.027515292
123	0xbc7b6660	-0.015344232
124	0x3c4480a0	0.011993557
125	0xbe6f7707	-0.23385249
126	0xbd5d71a8	-0.05406347
127	0x3abf5600	0.0014597774
128	0xbdbde4f8	-0.09272188
129	0xbc7de020	-0.01549533
130	0xbd86bab0	-0.065785766
131	0xbd8e5f28	-0.06951743
132	0x3d3ce640	0.04611802
133	0xbdc5bdf4	-0.09655371
134	0x3dd334f4	0.103128344
135	0x3defb800	0.11705017
136	0x3d9cc310	0.07654393
137	0x3d24f4ff	0.04027271
138	0x3d4f12c8	0.05055502
139	0xbca67ed0	-0.02032414
140	0x3df3c6f4	0.11903182
141	0x3cc30b20	0.023809016
142	0xbc6b3d60	-0.014357895
143	0xbdfe06a8	-0.12403613
144	0xbd215e30	-0.039396465
145	0x3cea5560	0.028605163
146	0x3d9ff0c0	0.07809591
147	0x3d492560	0.04910791
148	0x3cc569b0	0.024098247
149	0xbc908b27	-0.017644478
150	0x3c4904a0	0.012269169
151	0x3aadbb00	0.0013254583
152	0x3d459e60	0.04824674
153	0x3d4abd90	0.049497187
154	0xbdf75fa4	-0.12078789
155	0x3d8c0794	0.06837383
156	0x3da8be60	0.08239436
157	0x3d6f6218	0.05844316
158	0x3dc0e064	0.09417799
159	0xbd827c94	-0.06371418
160	0x3da03a70	0.07823646
161	0xbc567856	-0.013090214
162	0xbda117e8	-0.07865888
163	0x3d8b40f8	0.06799501
164	0xbd492b30	-0.049113452
165	0xbd5ba8b0	-0.05362767
166	0xbcbb1490	-0.022836953
167	0x3d015198	0.031571954
168	0x3d3f1fc0	0.04666114
169	0xbd9918a4	-0.07475403
170	0xbcdb91f0	-0.026802987
171	0xbded87dc	-0.11598179
172	0xbcbad410	-0.022806197
173	0xbdb27cea	-0.08715232
174	0xbcf50fe0	-0.029914796
175	0x3da4f0e4	0.08053759
176	0x3d8ff1c4	0.07028535
177	0xbdbedd74	-0.093195826
178	0xbd9463f0	-0.07245624
179	0x3df38d50	0.118921876
180	0x3d3f6dd0	0.046735585
181	0x3d470468	0.048588187
182	0xbbaf3900	-0.005347371
183	0xbd1759c0	-0.036950827
184	0xbdc1c8f4	-0.09462157
185	0xbdf371b3	-0.11886921
186	0x3ab17600	0.0013539195
187	0xbd8ea484	-0.069649726
188	0x3d99e6d8	0.07514733
189	0xbc8d2f20	-0.017234385
190	0x3d2a75f8	0.04161641
191	0x3c607320	0.013699323
192	0xbce9a3b0	-0.028520435
193	0xbdc4b79c	-0.09605333
194	0x3cc71090	0.02429989
195	0xbda53a6c	-0.08067784
196	0x3ba99280	0.005174935
197	0x3e092065	0.13391264
198	0xbca2abe0	-0.019857347
199	0x3dd11b80	0.10210323
200	0x3da218dc	0.07914898
201	0x3d9f62d8	0.07782525
202	0xbd851cec	-0.06499657
203	0x3d5b3670	0.053518713
204	0xbdfbda94	-0.1229755
205	0xbb222000	-0.0024738312
206	0xbdf70670	-0.12061775
207	0x3c5e9020	0.013584167
208	0xbda836fc	-0.082136124
209	0xbe3f0182	-0.18652919
210	0x3d964a18	0.07338351
211	0xbd87551c	-0.0660803
212	0x3c5df260	0.013546556
213	0xbde9240c	-0.113838285
214	0x3d96f590	0.07371056
215	0x3bf5f1c0	0.0075056255
216	0xbd6e8798	-0.05823478
217	0xbdaba640	-0.08381319
218	0x3c86d540	0.016459107
219	0x3d1bcff8	0.03804013
220	0x3d45ec60	0.048321128
221	0x3ec8a725	0.3919002
222	0x3dcf41fc	0.101200074
223	0x3d18e5a0	0.037328362
224	0xbcfec980	-0.031101942
225	0x3d9e8e9c	0.07742044
226	0xbdffe8f8	-0.12495607
227	0x3d640c50	0.055675805
228	0xbdae31a0	-0.08505559
229	0x3d261c38	0.040554255
230	0xbcf4f290	-0.029900819
231	0x3cd3e030	0.025863737
232	0x3d69b480	0.057056904
233	0xbecf7a37	-0.4052293
234	0xbd85cdb4	-0.065333754
235	0x3db73a7c	0.08946702
236	0xbcde81c0	-0.027161479
237	0x3d6c2b38	0.057658404
238	0x3ddf950c	0.109171
239	0x3c9e9990	0.019360334
240	0xbdf1261c	-0.11774847
241	0xbd435c18	-0.04769525
242	0x3de36f60	0.111052275
243	0x3dca0ea0	0.09866071
244	0x3ca04040	0.019561887
245	0x3e98b888	0.29828286
246	0x3d9e9774	0.07743731
247	0x3c523360	0.012829632
248	0xbd09cf80	-0.033645153
249	0x3d45af10	0.048262656
250	0xbd0db208	-0.034593612
251	0x3c5f36c0	0.013623893
252	0xbd39acf8	-0.04533097
253	0xbc0a21c0	-0.008430898
254	0xbcf595e0	-0.029978693
255	0xbce3f920	-0.027828753

sequential/conv1d/Conv1D/ExpandDims_1:0 f4 [16, 1, 1, 12]
0	0x3b6c0680	0.0036014616
1	0xbe1a5fc8	-0.150756
2	0xbcf2a5b8	-0.029620036
3	0x3e100f4b	0.14068334
4	0x3dab38e6	0.08360462
5	0x3f36e16c	0.71437716
6	0x3d289f38	0.041167468
7	0x3d8c693e	0.06856011
8	0x3e2303a7	0.15919362
9	0xbdeb505b	-0.11489936
10	0x3d8e6ce0	0.0695436
11	0x3d145e38	0.036222667
12	0xbe276ea7	-0.16350804
13	0xbbca8d40	-0.006181389
14	0x3d747c94	0.05968912
15	0xbd45547e	-0.04817628
16	0xbd86e1de	-0.065860495
17	0xbf35992e	-0.7093686
18	0x3de1954a	0.11014803
19	0x3e1f9463	0.15583949
20	0x3b89fea0	0.004211262
21	0xbd59953e	-0.053120844
22	0xbdb0def3	-0.08636274
23	0x3d56fd34	0.052487567
24	0x3dd64782	0.10462858
25	0xbd86749a	-0.06565209
26	0x3dbf5e4e	0.09344159
27	0x3dc6c55e	0.097056136
28	0x3b021900	0.0019851327
29	0x3f43526c	0.7629764
30	0x3e073d5d	0.13207002
31	0xbe1af5ed	-0.15132876
32	0xbd94acf5	-0.072595514
33	0xbdf4510a	-0.119295195
34	0xbca2b7e8	-0.019863084
35	0xbdb34680	-0.08753681
36	0xbb9c2cc0	-0.004766077
37	0x3dc1cd1e	0.09462951
38	0x3dbe5242	0.09293033
39	0x3d58c3d8	0.052921146
40	0x3d9b5642	0.07584812
41	0xbf4354eb	-0.7630145
42	0xbdd6e58d	-0.10493002
43	0xbb0e6700	-0.0021728873
44	0xbde80642	-0.113293186
45	0x3e263a7b	0.16233246
46	0xbd87e838	-0.06636089
47	0x3d22347c	0.039600834
48	0x3daa5caa	0.083184555
49	0xbd3bf850	-0.045891106
50	0xbe02ad98	-0.12761533
51	0x3e2769cf	0.16348957
52	0x3dc6ea7e	0.097126946
53	0x3f2b0df1	0.6681815
54	0xbdb0eafa	-0.08638568
55	0x3e2f12c1	0.17096998
56	0xbdd9e85a	-0.10640021
57	0x3e2aeafd	0.16691203
58	0x3e27b999	0.16379394
59	0xbd7ceffe	-0.061752312
60	0xbb8e4380	-0.0043415427
61	0x3e04dc9b	0.1297478
62	0x3ca3cf30	0.019996256
63	0x3cb86f60	0.022514045
64	0x3e01e0f5	0.1268347
65	0x3f31ac15	0.694032
66	0x3cf0dfb0	0.029403538
67	0xbdba4400	-0.09095001
68	0x3d82e456	0.06391208
69	0x3dea445a	0.11438818
70	0xbd8a0235	-0.06738702
71	0x3dec9c1e	0.115532145
72	0xbe2a5441	-0.16633703
73	0xbcf7e568	-0.030260757
74	0xbd06daac	-0.032923386
75	0xbe24a3c5	-0.16078098
76	0xbd1fa728	-0.038977772
77	0xbed954b2	-0.4244743
78	0xbd235c18	-0.03988275
79	0x3d48b4b8	0.04900047
80	0x3d1c9f40	0.03823781
81	0x3dc9cd96	0.098536655
82	0x3e09a177	0.134405
83	0x3d9ec3ca	0.077521876
84	0x3e26069d	0.1621346
85	0x3dc8e42a	0.09809144
86	0x3d8c4ed0	0.0685097
87	0x3df81ade	0.121144995
88	0x3c71a150	0.014747933
89	0xbf37c97b	-0.7179181
90	0x3dd86d72	0.1056775
91	0xbc493b40	-0.012282193
92	0x3e03d06f	0.1287248
93	0x3d8d9a10	0.06914151
94	0xbbfd3ee0	-0.0077284425
95	0xbe28ed02	-0.16496661
96	0x3da55656	0.08073108
97	0xbd6030dc	-0.054734096
98	0xbc8afc78	-0.01696609
99	0xbde9cd9b	-0.11416169
100	0x3db4f6ce	0.08836137
101	0x3f3f2db7	0.7467913
102	0xbd42046e	-0.047367506
103	0xbd10a1c4	-0.03531052
104	0x3cb028d8	0.02150385
105	0xbd5650ee	-0.052323274
106	0xbe1a57a5	-0.15072496
107	0x3dbe12ee	0.09280954
108	0x3de37692	0.111066
109	0xbc9bdee8	-0.019027188
110	0xbda9c5f7	-0.08289712
111	0x3e0165a5	0.1263643
112	0x3d3cdb84	0.046107784
113	0x3f3d8eae	0.74045837
114	0x3c560ce0	0.013064593
115	0xbe1734c3	-0.14766221
116	0xbcb5fe98	-0.022216126
117	0xbd8720df	-0.065980665
118	0x3d161034	0.036636546
119	0x3e26722f	0.16254495
120	0x3e047ca5	0.12938173
121	0x3d5f6ea4	0.054548874
122	0x3d86566a	0.06559451
123	0x3e2c032f	0.1679809
124	0xbd55b8c4	-0.05217816
125	0x3f36c53b	0.713947
126	0xbe1055f6	-0.14095291
127	0xbdb3225b	-0.08746787
128	0xbd25ffd8	-0.040527195
129	0x3cfc2e68	0.030783847
130	0xbdee4dab	-0.11635908
131	0x3e2cb2ff	0.16865157
132	0x3bcc4140	0.0062333643
133	0xbd5b6e3c	-0.053571925
134	0x3de9b8ae	0.11412178
135	0xbe0ce234	-0.13758165
136	0xbd903633	-0.07041588
137	0xbedf6fcd	-0.43639985
138	0x3da2ce9e	0.07949565
139	0xbc7091a0	-0.014683157
140	0x3c3f9d10	0.011695161
141	0x3cc15be8	0.023603395
142	0xbe252e20	-0.16130877
143	0xbd929e6a	-0.07159121
144	0xbdb7e253	-0.08978715
145	0xbd9dd258	-0.077061355
146	0xbd6a8966	-0.05725994
147	0x3dab3b7e	0.083609566
148	0xbdde19ef	-0.1084479
149	0xbc5d7765	-0.013517235
150	0x3d8b6afa	0.068075135
151	0x3df473fa	0.11936183
152	0xbe2a6583	-0.16640286
153	0xbe0020f2	-0.12512568
154	0x3c1f09c0	0.009706914
155	0xbd3af7e0	-0.04564655
156	0xbdd88f46	-0.10574202
157	0x3dafe672	0.08588876
158	0x3e2773fd	0.1635284
159	0xbd881929	-0.06645424
160	0x3d276668	0.040869147
161	0x3f1f4c34	0.6222565
162	0x3ca97360	0.020684898
163	0x3e1aa289	0.15101065
164	0xbdb1b17c	-0.086764306
165	0xbde19578	-0.11014837
166	0xbdbbcee6	-0.09170322
167	0xbe134f38	-0.14385688
168	0x3e0bca03	0.1365128
169	0xbdc56a62	-0.096394315
170	0xbe2565d5	-0.16152127
171	0xbca00678	-0.019534335
172	0x3e250237	0.16114126
173	0x3f0de059	0.5542045
174	0x3e1c462b	0.15261142
175	0xbb8a1240	-0.0042136014
176	0x3de85dee	0.11346041
177	0x3d0cb45c	0.03435169
178	0x3d77ba80	0.060480595
179	0xbd0c5d54	-0.034268692
180	0xbd924080	-0.07141209
181	0xbe294922	-0.16531804
182	0xbdaf92c1	-0.08572913
183	0xbe0d8ee8	-0.13824046
184	0xbb8a7c80	-0.0042262673
185	0x3f2d4ccb	0.676953
186	0xbdf46d82	-0.119349495
187	0xbd564188	-0.05230859
188	0xbddf9576	-0.10917179
189	0x3dc97b7e	0.098380074
190	0x3dfcfd86	0.12353043
191	0x3cfe1ac8	0.03101863

const_fold_opt__123 f4 [1, 16, 1]
0	0xbbb8769c	-0.0056293737
1	0x3ad278f0	0.0016057771
2	0x3ba35b8b	0.004985278
3	0x3b30a3b6	0.0026953048
4	0x3a6f91c8	0.00091388496
5	0x3a9c332c	0.0011917106
6	0x3abed415	0.0014559055
7	0xbb3ad109	-0.0028505942
8	0xb7327080	-1.063582e-05
9	0xbb04de74	-0.0020274194
10	0xbaa4e0ba	-0.0012579181
11	0x3a916503	0.0011092726
12	0xbad0da67	-0.001593423
13	0x3b8ac9ca	0.004235481
14	0xbaa6a6d6	-0.0012714516
15	0x3a44dd0e	0.00075097464

const_fold_opt__122 f4 [1, 16, 1]
0	0xbbc6a6a9	-0.006062348
1	0x3b08ade6	0.0020855605
2	0x3b41c1ef	0.0029565056
3	0xba1c702e	-0.0005967644
4	0xbaf8599a	-0.0018947602
5	0x3c175ddc	0.009238686
6	0xbbbc03da	-0.005737764
7	0x398fa1ae	0.00027395546
8	0x3bd906cd	0.006623125
9	0x3bb1de67	0.0054281238
10	0x3b422ca9	0.002962867
11	0xbbe1d57f	-0.006891906
12	0xbc106bba	-0.0088147465
13	0x3bfa3cbd	0.007636635
14	0x3b38e8b1	0.0028214867
15	0x3bcfa442	0.0063367197

W0__27 f4 [1, 144, 16]
0	0x3d7e2cb2	0.062054344
1	0x3e0b1e58	0.13585794
2	0xbc92c47c	-0.017915957
3	0xbd011c41	-0.031521086
4	0x3e184771	0.14871003
5	0x3e79cdf1	0.24394967
6	0xbd2ea048	-0.042633325
7	0xbce76150	-0.028244644
8	0xbd802eaa	-0.062589005
9	0x3d57f1ed	0.052720953
10	0x3e060bf5	0.13090499
11	0xbe840e21	-0.2579203
12	0xbe322b6c	-0.17399377
13	0x3e89c5a6	0.26908606
14	0xbe1df834	-0.15426713
15	0x3e2064e4	0.15663487
16	0xbeb2ccbf	-0.34921834
17	0x3f4819d4	0.7816441
18	0x3f14a59f	0.5806522
19	0xbf5c4a17	-0.8605055
20	0x3f3d4505	0.7393344
21	0x3f49ee0e	0.7887887
22	0xbea0d777	-0.31414387
23	0x3f4878f7	0.7830958
24	0x3f0dbc63	0.5536558
25	0x3f196af5	0.5992883
26	0x3f17310b	0.5905921
27	0xbf105590	-0.5638056
28	0xbf0bb82c	-0.545779
29	0x3f1ebbe1	0.6200543
30	0xbf46ace6	-0.7760757
31	0x3f1c31f0	0.610137
32	0x3d6d0bfc	0.057872757
33	0x3e6a2e8d	0.2286932
34	0x3e50ebd4	0.20402461
35	0xbd1cba4e	-0.03826361
36	0x3d9fed57	0.07808941
37	0x3cb4d443	0.02207387
38	0xbd42b9b6	-0.04754039
39	0x3d9017fd	0.070358254
40	0xbd4a4312	-0.04938037
41	0xbd0a37a9	-0.033744488
42	0xbe001e41	-0.12511541
43	0xbe7d5e8f	-0.24743102
44	0x3da12ab6	0.078694746
45	0xbda0984d	-0.07841549
46	0xbdd227e6	-0.10261516
47	0x3dbbe2f9	0.09174151
48	0x3eb219b8	0.34785247
49	0xbefd12ed	-0.49428502
50	0xbf37e812	-0.71838486
51	0x3eecca3f	0.46248052
52	0xbef94978	-0.48688865
53	0xbf009b2d	-0.5023678
54	0x3f880269	1.0625736
55	0xbf47e684	-0.78086114
56	0xbed620f9	-0.4182203
57	0xbf733d51	-0.95015436
58	0xbf11a70f	-0.56895536
59	0x3f05f689	0.5232931
60	0x3f5c20f3	0.85987777
61	0xbf7df10a	-0.9919592
62	0x3f1bf29c	0.6091707
63	0xbf0793ba	-0.5295979
64	0x3d85fe59	0.065426536
65	0xbdaefadc	-0.085439414
66	0x3d3c9021	0.04603589
67	0x3dd08b68	0.1018284
68	0xbd906cae	-0.07051979
69	0xbe6ec11d	-0.23315854
70	0xbc47340a	-0.012158403
71	0xbe6bac50	-0.23014951
72	0xbe818959	-0.253001
73	0xbdfbdeec	-0.12298378
74	0x3d9e20ff	0.07721137
75	0x3e104434	0.14088517
76	0x3e05b167	0.13055955
77	0x3dce1dd0	0.1006428
78	0xbc8a5f27	-0.016891075
79	0xbdb9b88c	-0.09068403
80	0xbe489545	-0.19588192
81	0xbcf3bef8	-0.029754147
82	0x3e61be25	0.2204519
83	0xbcf20f41	-0.02954829
84	0x3e982bba	0.2972086
85	0x3e323cb7	0.17405973
86	0xbe6b5829	-0.22982849
87	0x3c9a54a1	0.018839182
88	0xbde30a82	-0.110859886
89	0x3e13efa8	0.1444689
90	0xbd886ae8	-0.06661016
91	0x3d85d913	0.06535544
92	0xbe494852	-0.19656494
93	0xbd9a5eb5	-0.07537595
94	0xbe181f08	-0.14855587
95	0x3e54e3d2	0.20790032
96	0xbde7f51b	-0.11326047
97	0xbe0b236d	-0.13587733
98	0xbd3a740c	-0.045520827
99	0xbdd5f421	-0.104469545
100	0xbc04184a	-0.008062432
101	0x3d295bb8	0.041347235
102	0xbdc4f220	-0.09616494
103	0x3e036175	0.12830146
104	0xbda1489b	-0.078751765
105	0x3e8a90b1	0.27063516
106	0xbcd44910	-0.025913745
107	0xbe533cf0	-0.20628715
108	0xbe999378	-0.29995322
109	0x3d8b2b80	0.06795406
110	0xbded0561	-0.115732916
111	0x3e85e93d	0.2615451
112	0xbe6fa45a	-0.23402539
113	0x3ed30c42	0.4122029
114	0x3e9497e9	0.29022148
115	0xbefa7c61	-0.4892302
116	0x3f23ff28	0.6406121
117	0x3eaae20f	0.33375594
118	0xbece155b	-0.40250668
119	0x3ef3c47b	0.4761084
120	0x3ed95197	0.4244506
121	0x3ed2941c	0.41128623
122	0x3e901041	0.281374
123	0xbf105049	-0.56372505
124	0xbd9b33f2	-0.07578267
125	0x3e86c1a6	0.26319617
126	0xbebbcce4	-0.36679757
127	0x3e8886a4	0.26665223
128	0x3e23a016	0.15979037
129	0xbe3b780d	-0.18307514
130	0xbd849906	-0.064744994
131	0xbd85a9a6	-0.065264985
132	0xbdf2ffd8	-0.118652046
133	0xbc741f2a	-0.014900008
134	0x3d9e03e0	0.07715583
135	0xbe5ec624	-0.21755272
136	0xbe8ed697	-0.27898094
137	0xbc354441	-0.011063636
138	0xbca09640	-0.019602895
139	0xbcaed4e7	-0.021341754
140	0x3ea9eea9	0.33189896
141	0xbdd19c48	-0.102348864
142	0xbd35cbb2	-0.044383712
143	0xbd30a390	-0.043124735
144	0x3d271e57	0.04080042
145	0x3d0ce8ab	0.034401577
146	0xbdc369cc	-0.095416635
147	0x3df610ee	0.12014948
148	0xbacb662d	-0.0015518122
149	0xbd46e9c4	-0.04856278
150	0x3eb1511c	0.34632194
151	0xbe354ed6	-0.17705855
152	0x3d8cef7c	0.068816155
153	0xbe2a5a2a	-0.16635957
154	0xbcd87562	-0.02642316
155	0xbdc1be24	-0.094600946
156	0x3e8827f8	0.26592994
157	0xbd8d8862	-0.069107786
158	0xbd97b181	-0.07406903
159	0xbebf9e4c	-0.37425458
160	0x3ecb826b	0.3974794
161	0xbedf8767	-0.4365799
162	0xbefbcaed	-0.49178258
163	0x3f17d66e	0.5931157
164	0xbf175236	-0.5910982
165	0xbeb8666a	-0.36015636
166	0x3f43c19b	0.76467294
167	0xbef68f5f	-0.48156258
168	0xbecb5e18	-0.39720225
169	0xbf3366e8	-0.700789
170	0xbed61227	-0.41810724
171	0x3ed552b9	0.41664675
172	0x3f542f6b	0.82884854
173	0xbf2d3c32	-0.67669976
174	0x3f430379	0.76177174
175	0xbf6f8aa8	-0.9357095
176	0x3decc1a6	0.11560373
177	0x3c7edfad	0.015556258
178	0x3d172826	0.036903523
179	0x3e4409cd	0.19144364
180	0xbcfb24dc	-0.030657224
181	0xbe8dc418	-0.2768867
182	0x3d105b78	0.03524348
183	0x3dccce6b	0.100003086
184	0x3daf5152	0.085604325
185	0x3bec9c62	0.0072207907
186	0xbe27c528	-0.16383803
187	0x3e65c7cd	0.22439499
188	0x3cbdb109	0.023155706
189	0x3e18180a	0.1485292
190	0xbcc1cb71	-0.023656579
191	0x3d7382f0	0.059451044
192	0xbd73e166	-0.05954113
193	0x3e69dc74	0.22838002
194	0x3d9cd176	0.07657139
195	0xbc93090b	-0.017948648
196	0x3da75529	0.0817054
197	0x3ea0e6a3	0.31425962
198	0xbd5a5873	-0.053307008
199	0x3e649125	0.22320993
200	0x3deade43	0.11468174
201	0xbd67938d	-0.0565372
202	0x3e8391c3	0.25697145
203	0xbe2d6a31	-0.1693504
204	0xbe604ddd	-0.21904702
205	0xbdfd8375	-0.12378589
206	0xbe2533c1	-0.16133024
207	0x3d0a6165	0.03378429
208	0xbc8f30a0	-0.01747924
209	0xbe167ab2	-0.14695242
210	0xbdebb1d0	-0.115085244
211	0x3e5f2b1b	0.21793787
212	0xbdc7615d	-0.097353674
213	0x3d7a8ff0	0.061172426
214	0x3df9015c	0.121584624
215	0xbe0b2acd	-0.13590546
216	0xbc18c30a	-0.009323845
217	0xbdb129d5	-0.08650557
218	0xbc0bddb1	-0.008536742
219	0x3e303c5b	0.17210524
220	0x3e04888a	0.1294271
221	0xbe45db4f	-0.19321941
222	0x3e443aed	0.19163103
223	0xbe1106e6	-0.14162788
224	0xbe2d65af	-0.1693332
225	0xbe06b174	-0.1315363
226	0xbe1f33a9	-0.1554705
227	0x3e07bebd	0.13256355
228	0x3dac6dc9	0.08419377
229	0x3c16e609	0.009210118
230	0x3e2d1c11	0.16905238
231	0x3e0961ba	0.13416186
232	0xbda8e256	-0.08246295
233	0xbdb0f8d6	-0.08641212
234	0xbc0d3034	-0.00861745
235	0xbe2b1d06	-0.1671029
236	0x3e25fb56	0.16209158
237	0x3d988603	0.07447436
238	0x3e24eb58	0.16105402
239	0xbd1b8741	-0.037970785
240	0xbe9738e2	-0.29535586
241	0x3e84ee2a	0.25962955
242	0x3ebac431	0.36477807
243	0xbec62341	-0.38698772
244	0x3ef6addc	0.4817952
245	0x3edb325b	0.42811856
246	0xbed6f293	-0.41981944
247	0x3eeb5af3	0.45967826
248	0x3e0a4f7a	0.1350688
249	0x3eeb2bae	0.45931762
250	0x3ea859b1	0.3288093
251	0xbefe7ecc	-0.49706113
252	0xbeb80355	-0.35940042
253	0x3dfe87de	0.12428258
254	0xbee287e3	-0.44244298
255	0x3eb90b5e	0.36141485

R0__28 f4 [1, 144, 36]
0	0xbe2f0da0	-0.17095041
1	0x3db1e472	0.086861506
2	0x3d8b5fbc	0.06805369
3	0x3cfd5fb6	0.030929428
4	0xbcb4eb03	-0.022084719
5	0x3e164f2e	0.14678642
6	0xbd86a95e	-0.06575273
7	0xbdc62163	-0.09674337
8	0xbca4645c	-0.020067386
9	0x3cbbad94	0.022909917
10	0x3dc0fdf5	0.094234385
11	0x3e0a055d	0.13478608
12	0x3d0630db	0.032761436
13	0xbd3cb721	-0.046073083
14	0x3e1fb90f	0.15597938
15	0x3cdf7224	0.027276106
16	0xbb369ac5	-0.0027863246
17	0x3e1f5e84	0.15563399
18	0x3dac0695	0.08399693
19	0xbcefddd2	-0.029280577
20	0xbdf272fc	-0.11838338
21	0x3d9c87e0	0.076431036
22	0xbdbef264	-0.09323576
23	0x3e2ecd2f	0.17070459
24	0xbcf244bc	-0.02957379
25	0x3c0d504c	0.008625101
26	0x3cdc87d5	0.026920239
27	0x3c80ee8e	0.015738752
28	0xbdc52e1a	-0.09627934
29	0xbd247905	-0.040154476
30	0xbcdce120	-0.026962817
31	0x3d8a6ed1	0.06759418
32	0x3dbd5211	0.092441685
33	0x3d9975f2	0.074931994
34	0xbc59ac45	-0.013285701
35	0xbbfc672f	-0.00770273
36	0x3b935160	0.0044957846
37	0xbbc8a397	-0.006123017
38	0x3d15725a	0.036486007
39	0x3d2f3165	0.042771716
40	0xbd3388c7	-0.043831613
41	0xbe415384	-0.18879515
42	0xbdc292a3	-0.09500625
43	0xbd897f50	-0.06713736
44	0xbce056af	-0.027385084
45	0xbc2fe5f7	-0.01073598
46	0xbdd485c6	-0.10377078
47	0xbd2eb487	-0.042652633
48	0x3d150c9a	0.03638897
49	0x3d361e51	0.044462506
50	0xbc744f07	-0.01491142
51	0xbde8af3c	-0.11361548
52	0xbc0198da	-0.007909978
53	0xbd060c23	-0.03272642
54	0x3d5d163e	0.05397629
55	0x3dc80ad7	0.097676925
56	0xbdf2d532	-0.1185707
57	0x3d1ae52b	0.037816208
58	0xbc798391	-0.015229122
59	0xbe03cd28	-0.1287123
60	0x3ccf5b7a	0.025312174
61	0x3df3f8a9	0.119126625
62	0xbc90b798	-0.01766567
63	0x3c8eace9	0.017416434
64	0xbaf7e0b2	-0.0018911569
65	0x3d80d1f1	0.06290043
66	0x3dc7a666	0.09748535
67	0x3c376778	0.0111941025
68	0x3d8a1ea5	0.06744126
69	0xbce83af6	-0.028348427
70	0x3e373add	0.17893548
71	0xbe0891f0	-0.1333692
72	0x3d87af9f	0.06625294
73	0xbd9ba2a4	-0.075993806
74	0xbd8681fd	-0.06567762
75	0xbd8db170	-0.06918609
76	0xbe0e9666	-0.1392456
77	0xbde0308d	-0.1094676
78	0xbd7aee00	-0.06126213
79	0x3ddb012f	0.10693585
80	0xbc5e2242	-0.013557972
81	0x3dd0f699	0.10203285
82	0xbe032144	-0.12805659
83	0xbd283bd8	-0.041072696
84	0x3e0a08bb	0.13479893
85	0x3ce084cb	0.02740707
86	0xbc8a664a	-0.016894478
87	0xbe06c313	-0.13160352
88	0xbe456edb	-0.1928057
89	0xbd9de198	-0.07709044
90	0x3da1b4fb	0.078958474
91	0x3cd713e9	0.026254611
92	0xbdaa65d5	-0.08320204
93	0x3d9ae8e2	0.0756395
94	0x3dd4bde7	0.103877835
95	0x3d09aea8	0.03361383
96	0xbdbc9934	-0.09208909
97	0xbdc06661	-0.09394527
98	0xbcb60681	-0.022219898
99	0x3d101598	0.035176843
100	0x3ce99a5d	0.028515989
101	0x3c29d017	0.010364554
102	0x3daba128	0.083803475
103	0xbcdc6043	-0.02690137
104	0xbdbfa942	-0.09358455
105	0xbdbac323	-0.091192506
106	0xbe079f76	-0.13244423
107	0x3d04d9a0	0.032434106
108	0xbe4b56df	-0.19857357
109	0xbd380804	-0.04492952
110	0x3e126344	0.1429568
111	0x3d90fab5	0.070790686
112	0xbd56aa3a	-0.052408434
113	0xbc4f5e20	-0.0126567185
114	0x3e119f5a	0.14220944
115	0x3c3d36d0	0.011548713
116	0xbd2b1549	-0.041768346
117	0xbb548097	-0.0032425278
118	0x3b39e0b0	0.0028362684
119	0xbd9c0950	-0.07618964
120	0x3d99b531	0.07505263
121	0x3c591a3c	0.013250884
122	0xbc5fa6b6	-0.013650587
123	0x3d0e5f00	0.034758568
124	0xbdf09e71	-0.1174897
125	0x3d0cc0b9	0.034363482
126	0xbc6d11a3	-0.014469537
127	0xba452930	-0.0007521091
128	0x3db2778e	0.087142095
129	0xbd95e2d3	-0.07318654
130	0x3ca4640e	0.020067241
131	0x3c9825c1	0.01857269
132	0xbd34830b	-0.044070285
133	0x3d951634	0.072796255
134	0xbdb257d0	-0.08708155
135	0xbe17e3d3	-0.14833002
136	0x3c826745	0.015918383
137	0x3c8e6486	0.017381918
138	0x3dad3c49	0.08458764
139	0x3d454b46	0.04816749
140	0x3d013e16	0.03155335
141	0x3d1d1cc4	0.03835751
142	0xbda47715	-0.080305256
143	0x3cbb59d7	0.022869987
144	0xbe021c78	-0.12706172
145	0x3caf6e4c	0.021414898
146	0xbe08481b	-0.13308756
147	0x3e2527b5	0.16128428
148	0xbce4582d	-0.027874077
149	0xbd022068	-0.031769186
150	0x3d830b4f	0.06398641
151	0x3da917bf	0.08256482
152	0x3d9333c6	0.071876094
153	0xbbaf9700	-0.005358577
154	0xbcb847b7	-0.022495134
155	0x3c01a824	0.007913623
156	0xbdccd6e1	-0.100019224
157	0xbd5142a0	-0.05108893
158	0xbd12520a	-0.03572277
159	0xbc1411a4	-0.009037409
160	0x3d1944b6	0.037419043
161	0xbddee3c6	-0.10883288
162	0xbd5de0c1	-0.05416942
163	0xbce4fbd2	-0.027952109
164	0x3dedf0b3	0.11618175
165	0x3c98124a	0.018563408
166	0xbd7ee0d8	-0.062226146
167	0xbc7bd3f2	-0.015370356
168	0x3d9eaebd	0.077481724
169	0x3df986ba	0.121839
170	0xba40f5b8	-0.00073608337
171	0x3e331cba	0.17491427
172	0x3de434e4	0.111429006
173	0xbd49f5b3	-0.049306583
174	0x3dbffffd	0.09374998
175	0xbda30afd	-0.0796108
176	0x3d920c40	0.07131243
177	0xbd6ce946	-0.057839654
178	0xbde88000	-0.11352539
179	0x3da6707b	0.08126923
180	0x3d318a27	0.043344643
181	0x3de94506	0.11390118
182	0x3c866fea	0.016410787
183	0xbd26a517	-0.040684786
184	0x3d926dd6	0.07149856
185	0x3dabcbb3	0.08388462
186	0xbdb0af21	-0.08627153
187	0x3dc49f6c	0.0960072
188	0xbde90e4c	-0.1137968
189	0xbd936c5e	-0.07198404
190	0x3df33a46	0.11876349
191	0x3daec7d5	0.08534209
192	0xbe1645a1	-0.14674999
193	0x3d57b27c	0.05266045
194	0xbd954647	-0.07288795
195	0x3c09638c	0.00838555
196	0xbd92e55a	-0.071726516
197	0xbd57f467	-0.052723315
198	0xbc37e0e4	-0.011223052
199	0xbd4dd65b	-0.050253253
200	0xbdb56151	-0.08856452
201	0xbd04ae6a	-0.032392897
202	0x3dba773a	0.09104772
203	0xbdfc5450	-0.12320769
204	0x3db3f02b	0.08786043
205	0x3d2c1f0b	0.042021792
206	0xbc579026	-0.013156926
207	0xbd09cafb	-0.033640843
208	0xbd0c28df	-0.034218665
209	0x3d92fcd3	0.07177129
210	0x3d3e4c1a	0.046459295
211	0x3d525f9e	0.05136072
212	0xbd22c766	-0.039740942
213	0x3d0a27e6	0.033729456
214	0x3d5c1848	0.053734094
215	0x3e40b112	0.18817547
216	0x3c1a2a9c	0.009409573
217	0xbd6a2bba	-0.057170607
218	0x3d0d08f3	0.034432363
219	0xbd9be0b6	-0.076112196
220	0x3c5e9566	0.013585424
221	0xbdfd1fc1	-0.12359572
222	0x3d0f9814	0.035057142
223	0xbc65726e	-0.014004333
224	0xbda597f0	-0.080856204
225	0x3dd93725	0.10606221
226	0xbd38712e	-0.04502981
227	0x3da19577	0.07889836
228	0xbdd60a95	-0.10451237
229	0x3d6b50d6	0.057450138
230	0x3c8c6274	0.01713679
231	0x3db503bb	0.08838602
232	0x3e0df919	0.13864554
233	0xbe231b61	-0.15928413
234	0x3c9e9b84	0.019361265
235	0x3df5ecea	0.120080784
236	0xbcf5abb7	-0.029989107
237	0x3bd120e9	0.006382097
238	0xbdf12d7f	-0.11776256
239	0x3d45bfe0	0.04827869
240	0x3d8cb129	0.06869728
241	0x3c9495a8	0.018137768
242	0x3db855bb	0.09000727
243	0x3c9af7bb	0.018916955
244	0xbc58d3bb	-0.013234074
245	0x3d99db01	0.07512475
246	0xbd959220	-0.07303262
247	0x3d8300bd	0.06396625
248	0x3d2e3e3c	0.04253982
249	0xbd28c826	-0.0412065
250	0x3df8af72	0.121428385
251	0xbd2bfc16	-0.041988455
252	0x3d347abe	0.04406237
253	0xbc84d8f4	-0.016216733
254	0x3e302aa4	0.17203766
255	0xbbe28fe2	-0.006914125

B0__29 f4 [1, 288]
0	0xbe8a5869	-0.27020577
1	0xbd808227	-0.062748246
2	0xbe2c0c96	-0.16801676
3	0xbdd0eb9f	-0.10201191
4	0xbdb2635d	-0.08710358
5	0xbe50ad9e	-0.2037873
6	0xbea6847a	-0.32522947
7	0xbe013402	-0.12617496
8	0xbd5c4e66	-0.053785704
9	0xbe9054ea	-0.28189784
10	0xbe115e7d	-0.141962
11	0xbe211d0b	-0.15733735
12	0xbde08dc4	-0.1096454
13	0xbe176a23	-0.14786582
14	0xbe144c96	-0.1448234
15	0xbe4813c1	-0.19538786
16	0xbdcdc122	-0.10046603
17	0xbe8305fc	-0.25590503
18	0xbe402ed6	-0.18767866
19	0xbda3c89a	-0.07997246
20	0xbe1b4e67	-0.15166627
21	0xbd5d3ea1	-0.054014806
22	0xbe141da4	-0.14464432
23	0xbe8614d9	-0.2618778
24	0xbf2cb605	-0.6746524
25	0xbe2250df	-0.15851162
26	0xbe50db86	-0.20396242
27	0xbe34bd18	-0.17650259
28	0xbed6bcde	-0.4194097
29	0x3e2e1bd3	0.17002802
30	0xbe78827c	-0.24268526
31	0xbdc7e2d5	-0.09760062
32	0xbdc84600	-0.097789764
33	0xbe197f69	-0.1499001
34	0xbe28d18a	-0.16486183
35	0xbe1bc651	-0.1521237
36	0xbe8ee0b1	-0.279058
37	0xbe6e23a1	-0.23255779
38	0xbe2e7898	-0.1703819
39	0xbdcad89e	-0.09904598
40	0xbdb37eff	-0.08764457
41	0xbe644a20	-0.22293901
42	0xbea971da	-0.33094674
43	0xbdd5165a	-0.10404654
44	0xbdd584fc	-0.104257554
45	0xbe9a6c60	-0.3016081
46	0xbe58d0e3	-0.21173434
47	0xbe2139cd	-0.15744705
48	0xbe09729c	-0.13422626
49	0xbe4c7469	-0.19966282
50	0xbe1660ee	-0.14685413
51	0xbe354e73	-0.17705707
52	0xbe06f96b	-0.13181083
53	0xbe8bdecf	-0.27318427
54	0xbe717f7f	-0.23583792
55	0xbe37232d	-0.17884512
56	0xbe145895	-0.14486916
57	0xbde71e5b	-0.11285087
58	0xbe19d9b8	-0.1502446
59	0xbe874dec	-0.26426637
60	0xbf28517d	-0.6574934
61	0xbe229a8e	-0.1587927
62	0xbe6a722c	-0.22895116
63	0xbe3ba529	-0.18324722
64	0xbedb0813	-0.42779598
65	0xbe45035b	-0.19239561
66	0xbe7e58cc	-0.24838561
67	0xbdfa4078	-0.12219328
68	0xbe0b0932	-0.13577726
69	0xbe066a84	-0.1312657
70	0xbe2940a7	-0.16528569
71	0xbe29622a	-0.16541353
72	0x3f800000	1.0
73	0x3f800000	1.0
74	0x3f800000	1.0
75	0x3f800000	1.0
76	0x3f800000	1.0
77	0x3f800000	1.0
78	0x3f800000	1.0
79	0x3f800000	1.0
80	0x3f800000	1.0
81	0x3f800000	1.0
82	0x3f800000	1.0
83	0x3f800000	1.0
84	0x3f800000	1.0
85	0x3f800000	1.0
86	0x3f800000	1.0
87	0x3f800000	1.0
88	0x3f800000	1.0
89	0x3f800000	1.0
90	0x3f800000	1.0
91	0x3f800000	1.0
92	0x3f800000	1.0
93	0x3f800000	1.0
94	0x3f800000	1.0
95	0x3f800000	1.0
96	0x3f800000	1.0
97	0x3f800000	1.0
98	0x3f800000	1.0
99	0x3f800000	1.0
100	0x3f800000	1.0
101	0x3f800000	1.0
102	0x3f800000	1.0
103	0x3f800000	1.0
104	0x3f800000	1.0
105	0x3f800000	1.0
106	0x3f800000	1.0
107	0x3f800000	1.0
108	0x3c5bac8f	0.01340784
109	0x3c329946	0.010900801
110	0x38a4eb30	7.8639365e-05
111	0xbc820eb6	-0.015876155
112	0xbb1f09dc	-0.0024267351
113	0xbc8eca23	-0.01743037
114	0x3c72946d	0.014805895
115	0xbb0d1a03	-0.0021530397
116	0xbb4d0cce	-0.003128815
117	0xba08aafc	-0.0005213467
118	0xbc0f0aa5	-0.008730565
119	0xbae2e226	-0.0017309829
120	0x3bc9cb67	0.0061582807
121	0xbb29d110	-0.0025911964
122	0xb9a04a70	-0.00030573038
123	0xbb616acf	-0.0034395938
124	0xbc38281f	-0.011240034
125	0x3c05fc5b	0.008177842
126	0x3bf8fee4	0.0075987447
127	0x3dd383ce	0.10327874
128	0xb944dbdf	-0.00018773925
129	0xbc887676	-0.01665805
130	0xbb045db6	-0.0020197458
131	0xbc71f79c	-0.014768507
132	0x3d1caf48	0.0382531
133	0xbb9cdb16	-0.0047868593
134	0xbbe6a563	-0.0070387586
135	0x3b11d39a	0.0022251369
136	0x3c7a276f	0.015268191
137	0x3aa7e66c	0.001280976
138	0x3c378f29	0.011203566
139	0x3c18813b	0.009308155
140	0x3bb5b875	0.0055456706
141	0xbb2b2ef1	-0.0026120509
142	0x3b13d664	0.0022558207
143	0xbc0f0b4d	-0.008730722
144	0x00000000	0.0
145	0x00000000	0.0
146	0x00000000	0.0
147	0x00000000	0.0
148	0x00000000	0.0
149	0x00000000	0.0
150	0x00000000	0.0
151	0x00000000	0.0
152	0x00000000	0.0
153	0x00000000	0.0
154	0x00000000	0.0
155	0x00000000	0.0
156	0x00000000	0.0
157	0x00000000	0.0
158	0x00000000	0.0
159	0x00000000	0.0
160	0x00000000	0.0
161	0x00000000	0.0
162	0x00000000	0.0
163	0x00000000	0.0
164	0x00000000	0.0
165	0x00000000	0.0
166	0x00000000	0.0
167	0x00000000	0.0
168	0x00000000	0.0
169	0x00000000	0.0
170	0x00000000	0.0
171	0x00000000	0.0
172	0x00000000	0.0
173	0x00000000	0.0
174	0x00000000	0.0
175	0x00000000	0.0
176	0x00000000	0.0
177	0x00000000	0.0
178	0x00000000	0.0
179	0x00000000	0.0
180	0x00000000	0.0
181	0x00000000	0.0
182	0x00000000	0.0
183	0x00000000	0.0
184	0x00000000	0.0
185	0x00000000	0.0
186	0x00000000	0.0
187	0x00000000	0.0
188	0x00000000	0.0
189	0x00000000	0.0
190	0x00000000	0.0
191	0x00000000	0.0
192	0x00000000	0.0
193	0x00000000	0.0
194	0x00000000	0.0
195	0x00000000	0.0
196	0x00000000	0.0
197	0x00000000	0.0
198	0x00000000	0.0
199	0x00000000	0.0
200	0x00000000	0.0
201	0x00000000	0.0
202	0x00000000	0.0
203	0x00000000	0.0
204	0x00000000	0.0
205	0x00000000	0.0
206	0x00000000	0.0
207	0x00000000	0.0
208	0x00000000	0.0
209	0x00000000	0.0
210	0x00000000	0.0
211	0x00000000	0.0
212	0x00000000	0.0
213	0x00000000	0.0
214	0x00000000	0.0
215	0x00000000	0.0
216	0x00000000	0.0
217	0x00000000	0.0
218	0x00000000	0.0
219	0x00000000	0.0
220	0x00000000	0.0
221	0x00000000	0.0
222	0x00000000	0.0
223	0x00000000	0.0
224	0x00000000	0.0
225	0x00000000	0.0
226	0x00000000	0.0
227	0x00000000	0.0
228	0x00000000	0.0
229	0x00000000	0.0
230	0x00000000	0.0
231	0x00000000	0.0
232	0x00000000	0.0
233	0x00000000	0.0
234	0x00000000	0.0
235	0x00000000	0.0
236	0x00000000	0.0
237	0x00000000	0.0
238	0x00000000	0.0
239	0x00000000	0.0
240	0x00000000	0.0
241	0x00000000	0.0
242	0x00000000	0.0
243	0x00000000	0.0
244	0x00000000	0.0
245	0x00000000	0.0
246	0x00000000	0.0
247	0x00000000	0.0
248	0x00000000	0.0
249	0x00000000	0.0
250	0x00000000	0.0
251	0x00000000	0.0
252	0x00000000	0.0
253	0x00000000	0.0
254	0x00000000	0.0
255	0x00000000	0.0
