Demo/Model/ADC/ADC.onnx (onnx, 17060 bytes, 5 tensors)

sequential/dense/Tensordot/ReadVariableOp:0 f4 [16, 1]
00000000: d9da 353a cf61 2bbb 7c5a ad3c 045c 633e
00000010: 5b3f 8fbe 2c14 93ba 70aa cdbd 0d89 7bbe
00000020: 3f0d 9a3c 8bd4 2cba 110c a0bc 1205 8fba
00000030: 981b 4cbe 56a2 433e 79fa febd b869 92be
0.0006937213 -0.0026150828 0.02116131 0.2220307 -0.27978024 -0.0011221222 -0.10042274 -0.24564
0.018805144 -0.00065929507 -0.019537004 -0.0010911545 -0.19932401 0.19104895 -0.124501176 -0.28596282

sequential/conv1d_1/Conv1D/ExpandDims_1:0 f4 [16, 16, 1, 12]
00000000: 0000 5e39 fc6c 993d c4ec dc3d 8093 f4bd
00000010: 30ba aebc 3055 143c 8c86 bc3d 6c5d f9bd
00000020: 400f 1f3c b467 eabd 58df b6bd 5036 603d
00000030: b43b 84bd 0854 66bd 58ad 61bd 68e1 f0bd
00000040: 1c8c c13d bc9f 893d 547d c53d 70dd d4bc
00000050: 5016 913d 4c50 c6bd a0fa dd3d 3010 be3d
00000060: 68f6 cc3d 60f4 47bc 5001 ccbd 840f d93d
00000070: 2c4b b43d 81b1 933d 187a f3bd 603b d83c
00000080: 1488 c03d f876 053d a03d 9dbd 7817 923d
00000090: 0c4a cf3d 0833 723d 68b7 de3d 6478 e1bd
000000a0: b8ef 953d bf4f 793c 4ca7 b1bd e06b 6e3d
000000b0: 1840 383d ec89 fe3d c096 48bc 5c67 853d
000000c0: 74a4 b23d c82b 193d 00e7 4f3d c02e 923d
000000d0: 8c6c bdbd 5635 a2bd 00f5 b63d 802a d43d
000000e0: 0c30 fd3d c496 e4bd f88b 343d 609e 633c
000000f0: 3c06 ccbd 0c52 dc3d c0d3 cebb 70ed f4bc
00000100: 00da d03a f9bb 9dbb 5410 c43d 0016 663d
00000110: 0027 39bd 006a 8c3a 10b7 f63c ecb2 c63d
00000120: f0e7 f7bc b0c9 8ebd ace1 b2bd 14b2 fdbd
00000130: dc17 fe3d 3af7 ae3c d8a2 e9bd a06b 2cbc
00000140: b054 bf3c 901e f0bd 8457 8bbd c0d7 ce3c
00000150: d87e aabd 8040 edbc 30c2 95bc b01a c83c
00000160: f092 983c db54 073c 0403 f9bd 68c7 3f3d
00000170: 00bb c63c e8b6 813d 8483 c63d f02b d53d
00000180: 40f9 e5bd a8a0 84bd 00e7 d2bd 606e 283c
00000190: e89f b13d 1cd3 bcbd 404c d93c e856 efbd
000001a0: 008c 95ba 34a2 d33d 2497 a0bd 20e0 d4bd
000001b0: e091 41bc 607c 3d3c ac17 ee3d 90e0 ed3d
000001c0: f8cc 4e3d 6073 35bd 94eb c4bd d418 e13d
000001d0: 00a9 59bd 20d7 213d 4019 563d a094 723d
000001e0: 9061 43bd 602e b03c 24ec 9cbd 20eb 5d3c
000001f0: b03d bd3c 0379 c9bd cceb 8c3d 946d 9c3d
00000200: 40a5 77bc e035 703d c016 4bbd 1843 223d
00000210: a46d bfbd c45a ec3d 0071 183b 986e 013d
00000220: 709f c6bd 08b7 903d f03b 68bd 4487 9bbd
00000230: 0036 6e3b 287a 5b3d c02a aebb ac56 c0bd
00000240: 04f6 e43d 80ea 48bc d05e 91bc 2826 c5bd
00000250: 58aa 59bd 7b09 b53d 603e 6abd 60c6 8f3d
00000260: 7cf0 f0bd 843b 903d 8082 e13b 4c92 dd3d
00000270: d835 28bd e882 cbbd 2489 883d 98a2 2abd
00000280: 74b8 bc3d be09 ce3d b4bc 9abd a089 d9bc
00000290: c85f ce3d 0099 81bd 981b 833d d421 fdbd
000002a0: 50d8 943c 2c6c fc3d 4cc0 e33d b4f2 8c3d
000002b0: 6096 353d 8039 16be 20ae 37bd c025 8a3b
000002c0: 7057 e6bc c451 f13d 80cf 86bd e078 afbc
000002d0: 9c4c 8c3d 7cec 9e3d a48d a6bd 2ce9 a1bd
000002e0: d8e5 1ebd 7ec4 6abd a0d3 cc3d 8086 a03b
000002f0: 70c4 62bd 38cf afbd 5045 c2bc 6006 ca3c
00000300: 1822 963d 102e 81bc 60ab 56bc 4c82 e6bd
00000310: 6068 713c 50fe f3bb 9469 fbbd 6cd8 d1bd
00000320: 507a 7fbd 2cc7 8b3d 144f fb3d 5040 b4bc
00000330: a052 3d3c 48c4 0abd 40b5 a0bd 00ef 8e3d
00000340: f81f 83bd 0627 cfbc f097 aabd 18b2 57bd
00000350: 4c2b dfbd dc2b fa3d d826 753d d0f3 683d
00000360: f073 83bc 40d6 343d 5897 1a3d 7cfc f6bd
00000370: 081b 153d 3801 d83d 7057 05bd 8001 e33c
00000380: e8ae 18bd 60bf ec3d 78f7 e7bd 0434 b0bd
00000390: 2c12 86bd f08a ccbc 3041 073d 003e c93b
000003a0: 28a7 413d 37e7 41bd bc4b 81bd a020 c73d
000003b0: cc76 f8bd 0483 a83d 606d dfbc f09c b63d
000003c0: d07f e43d b853 7cbd 0028 0d3d b0cf 29bd
000003d0: 5021 a43d cb77 96bb c8bf 39bd 8431 e7bd
000003e0: 08b0 b4bd 90cb b6bd 8081 c6bb 78fb 113d
000003f0: a0a0 86bc 88eb f23d a08c b23c 707a 4e3d
0.0002117157 0.0749149 0.10787347 -0.11942196 -0.021329015 0.009053513 0.0920535 -0.12176022
0.009708226 -0.11445561 -0.08929318 0.054739296 -0.064567 -0.056232482 -0.055096954 -0.11761743
0.09450552 0.0671992 0.09643045 -0.025984496 0.07084334 -0.09683284 0.108388186 0.09280431
0.10007936 -0.01220426 -0.09961188 0.105986625 0.088034004 0.072115906 -0.11888522 0.0263955
0.09400955 0.03258416 -0.0767777 0.071333826 0.10121545 0.0591307 0.10874826 -0.11009291
0.07321113 0.015216767 -0.086744875 0.058208346 0.044983 0.1242865 -0.012242973 0.06513855
0.08722773 0.03739527 0.05075741 0.07137823 -0.09249219 -0.07920329 0.08933449 0.10359669
0.1236268 -0.11161569 0.044078797 0.01389274 -0.099621266 0.10757837 -0.0063118637 -0.029898375
0.001593411 -0.004813668 0.09573427 0.056173325 -0.04520321 0.0010712743 0.030116588 0.097020954
-0.030261964 -0.069720626 -0.0873445 -0.12387481 0.124068946 0.021358121 -0.11408013 -0.010523707
0.023355812 -0.11724579 -0.06803802 0.025249362 -0.08324975 -0.02896142 -0.018281072 0.024426788
0.018624753 0.008259977 -0.12158778 0.046821028 0.02425909 0.06333715 0.09693053 0.10408771
-0.11229181 -0.06475955 -0.10297966 0.010280222 0.08673078 -0.092199534 0.026525617 -0.11686498
-0.0011409521 0.10333672 -0.07841328 -0.10394311 -0.0118145645 0.011565298 0.11625609 0.116150975
0.050488442 -0.044299483 -0.096152455 0.10991064 -0.053139687 0.0395118 0.052270174 0.05922377
-0.047700465 0.021506488 -0.07662228 0.013544828 0.023100704 -0.09837534 0.06880912 0.07638088
-0.015115082 0.05864513 -0.049582243 0.039614767 -0.09347084 0.1154075 0.0023260713 0.03159961
-0.09698379 0.070661604 -0.056697786 -0.07594159 0.0036348104 0.053583294 -0.005315155 -0.09391531
0.11179736 -0.01226294 -0.017745405 -0.09626418 -0.053140968 0.08839699 -0.05718839 0.07020259
-0.11764619 0.07042602 0.006882012 0.108189195 -0.041066974 -0.09937078 0.066667825 -0.041658968
0.09214869 0.10060452 -0.075555235 -0.026554883 0.100768626 -0.063280106 0.064017475 -0.12359968
0.018169552 0.1232532 0.11120662 0.068822294 0.044332862 -0.14670372 -0.044843793 0.004215926
-0.028117865 0.11783174 -0.06582546 -0.021419942 0.068505496 0.077599496 -0.081324846 -0.07905802
-0.038793415 -0.057316296 0.10001302 0.004898846 -0.05536312 -0.08584446 -0.023714691 0.024661243
0.073307216 -0.015769035 -0.013102382 -0.11255321 0.014734358 -0.007446088 -0.12275997 -0.10246357
-0.062372506 0.068250984 0.12270942 -0.022003323 0.011555344 -0.033878595 -0.07847071 0.069791794
-0.06402582 -0.025287163 -0.08329761 -0.052660078 -0.1089693 0.12215397 0.059851497 0.056873143
-0.016046494 0.044149637 0.03774199 -0.12059876 0.036402732 0.105471075 -0.03255409 0.027710676
-0.03727618 0.115599394 -0.11326498 -0.08603671 -0.06546435 -0.024968594 0.033021152 0.006141424
0.047278553 -0.047339644 -0.06313273 0.097230196 -0.12132034 0.08228114 -0.027273834 0.08916652
0.11157191 -0.061603278 0.034461975 -0.04145783 0.08014166 -0.004591917 -0.045348912 -0.11288741
-0.08822638 -0.08925545 -0.006057918 0.03564021 -0.016434014 0.1186133 0.02179557 0.050409734

sequential/conv1d/Conv1D/ExpandDims_1:0 f4 [16, 1, 1, 12]
00000000: 2a43 7dbd 38c0 e7bc f0db 0bbd 1da0 183e
00000010: 39c7 10be e791 163f 656f 04be 7047 e1bd
00000020: 1da2 0bbe 800b 533b 1072 0e3c 6f87 0d3e
00000030: 4c63 5a3d 000f f2ba 5a95 ef3d 37ed 2ebe
00000040: d74e 0d3e e545 89be 7b4f 9bbd e00a e43c
00000050: b29d f3bd 20ed ea3c de65 9cbd 362c a53d
00000060: 9a83 c7bd 7f6d 2f3e 047e 863d b800 873d
00000070: a9a8 19be 7695 e0bb 40e4 83bb 436a dfbd
00000080: 748a 29be e0e3 04be f5da 183e 3793 1ebe
00000090: 504f 08bc 25b1 103e 5095 f13c 304d 5ebd
000000a0: 930d 2c3e c2b3 18bf b94f 0cbe 03ad 003e
000000b0: 98d4 423d 00bd 2a3c 2431 15be 15ab 243e
000000c0: 00f5 d13b def9 27be ed1e 243e 806f ca3b
000000d0: f69a 833d 738f eabe bc27 023d 5b5d 1a3e
000000e0: 6067 e4bb f051 12be 740d c1bd e02a 72bc
000000f0: 5821 893c 7077 27bd 44fe abbd 11ef 21be
00000100: 1cd8 39bd f385 263f 3a84 ce3d 91cd 1b3e
00000110: bf01 2dbe 5e06 b53d 96f6 da3d a4c4 e8bd
00000120: 0d32 1e3e ba84 de3d da20 e03d 04ea 413d
00000130: f033 603d 8db9 9c3e 19e7 babd 9b75 c8bd
00000140: 6a12 5fbd 48ee d0bc 2b6d 113e 8acf e53d
00000150: 00ed 1b3c b065 273d 66ef f63d b4ac 6d3d
00000160: 70d6 14bd 4268 d13e 11f4 113e 48c0 eabc
00000170: ec28 9c3d fa98 b9bd aa7f c43d 4a51 ff3d
00000180: 64ea 183d d51d 2e3e c842 28bd 90f9 c23c
00000190: 68c4 e1bc c22a 16bf 6617 bc3d b095 713d
000001a0: 8640 9c3d 28ca 03be ca8d b23d d52d 1d3e
000001b0: 1c90 23bd 5f76 2c3e dc87 1fbd 6d33 85bd
000001c0: 16eb c83d d35b d2be 3661 af3d aa0d 15be
000001d0: 807c 0d3b 8c0f 9a3d 7083 2abe c8c6 fabc
000001e0: 7699 b73d aeb5 a13d 0008 253c 9a98 f63d
000001f0: c0cc a2bd 54bb ef3e b0be 393d 6488 243d
00000200: c83f 983c 48a3 a5bc 8083 efbd 275d 2f3e
00000210: f887 d33c c72a ebbd 5a48 e03d 66b3 4abd
00000220: d047 3f3c 4fd3 16bf 0aac 73bd 46c4 63bd
00000230: aded 0abe cdec 123e 3040 783d 24de b6bd
00000240: e40d 77bd 7a67 0cbe c8e6 cb3c 045e 8dbd
00000250: dbb7 113e 2762 1bbf cac2 d43d 520d 62bd
00000260: 0e54 b93d 2b8a 273e db19 173e da57 a73d
00000270: f1b2 0e3e 1ac0 a7bd 007e 2ebe 92d5 41bd
00000280: f662 fdbd 0bc9 223c 80ab c5bc 81eb 083e
00000290: 76f1 d33d 04fa 24bd 9cd8 f9bd ea2e a83d
000002a0: 5bc1 8dbd 7b1c 113e 0a05 f43d 90fd ffbc
000002b0: 6d00 26be 9cc0 3fbe 5e0e a13d ddbf b0bd
000002c0: 925d e33d aee2 f8bd 8c31 283d 0b49 073e
000002d0: 0098 c1bb 6c33 1a3d 6926 0e3e e056 1bbe
000002e0: d0b4 d5bc c1e4 94be 1048 b4bc 20a4 8f3d
000002f0: b0cd e4bd cc68 b7bd ea8c b53d 007e d839
-0.06183163 -0.0282899 -0.034145296 0.14904828 -0.14138497 0.5881638 -0.12933119 -0.10999954
-0.1363606 0.00322029 0.008694187 0.13821195 0.053317353 -0.0018467605 0.116984084 -0.17082678
0.13799606 -0.26811138 -0.07583519 0.027837217 -0.11895312 0.028677523 -0.07636617 0.08065073
-0.09741898 0.17131613 0.06567004 0.06591934 -0.15005745 -0.0068537546 -0.0040250123 -0.1090894
-0.16556722 -0.12977552 0.14927275 -0.15485846 -0.008319691 0.14130075 0.029490143 -0.05427283
0.16802053 -0.5964929 -0.13702287 0.12565999 0.047566026 0.010421038 -0.14569527 0.16080888
0.00640738 -0.1640391 0.16027422 0.0061778426 0.06426041 -0.45812568 0.031776175 0.15074675
-0.006970331 -0.14289069 -0.09426394 -0.01478073 0.016739532 -0.04088539 -0.08398107 -0.15813853
-0.045372114 0.6504814 0.10083814 0.15215136 -0.16895197 0.08839105 0.10691564 -0.11365631
0.1544878 0.10865159 0.10943766 0.047342315 0.05473703 0.30610314 -0.0912611 -0.097880565
-0.05446092 -0.025504246 0.142018 0.112212256 0.009516954 0.04086846 0.120573804 0.05802603
-0.036337316 0.40899855 0.1425326 -0.02865614 0.07624993 -0.09062381 0.095946625 0.124666765
0.037332907 0.17003568 -0.041079313 0.023800641 -0.027559474 -0.58658993 0.091841504 0.058980644
0.07629494 -0.12870085 0.0871845 0.15349515 -0.039932355 0.1684203 -0.038947925 -0.06503949
0.09810464 -0.4108568 0.085634634 -0.14555994 0.00215891 0.075224966 -0.16651702 -0.030612364
0.08964817 0.07895981 0.010072708 0.12040825 -0.07949209 0.46822608 0.04534787 0.040169135
0.0185851 -0.02021946 -0.116950035 0.17125379 0.02582167 -0.114827685 0.109513 -0.049487494
0.011674836 -0.5891618 -0.05949024 -0.055607103 -0.13567229 0.14348145 0.06060809 -0.08929089
-0.06031598 -0.13711348 0.024890319 -0.06902698 0.14230292 -0.60696644 0.103887156 -0.055188484
0.09049235 0.163613 0.14755957 0.08171053 0.13935448 -0.08190937 -0.17040253 -0.047322817
-0.12372391 0.009935628 -0.02412963 0.13371088 0.103487894 -0.040277496 -0.12199518 0.08212073
-0.06921645 0.1417102 0.119150236 -0.031248838 -0.162111 -0.18725818 0.078640684 -0.08630345
0.111018315 -0.12152611 0.041062877 0.13211457 -0.0059080124 0.037646696 0.1388184 -0.15169859
-0.026087195 -0.29080775 -0.022007018 0.07013726 -0.11172044 -0.08955535 0.08864768 0.00041292608

const_fold_opt__69 f4 [1, 16, 1]
00000000: cc1f 7eb9 5f5b 6b3a 1fc5 51bb 08f6 83bb
00000010: d1f4 393b 2dc1 093a 29d6 893b c4c4 693b
00000020: 8585 08bb 9f8f 0b3a 36bf 2e3b 493d 1e3a
00000030: 0af5 753b 69f4 7bbb 22f7 923b e7bb 493b
-0.00024235173 0.0008978154 -0.0032008362 -0.004027132 0.0028374682 0.00052549207 0.004206438 0.003567026
-0.0020831537 0.00053238304 0.0026664264 0.0006036354 0.0037530088 -0.003844524 0.004485027 0.0030782165

const_fold_opt__64 f4 [1, 16, 1]
00000000: 4660 663a e0e7 07bb f8a6 cab8 efd6 49ba
00000010: eb0e 15bb 0ec0 8c39 d82b bc3a bccd 193b
00000020: 9eaf 92ba 4812 13b9 3e19 113b 3e67 efb9
00000030: 8e97 d4b9 df0c 3a39 1f83 d9ba a3a1 aeba
0.00087881496 -0.0020737574 -9.663211e-05 -0.0007699569 -0.0022744488 0.00026845973 0.0014356328 0.0023468575
-0.0011191254 -0.00014025823 0.002214029 -0.00045662554 -0.00040548708 0.00017743137 -0.0016594863 -0.0013323318
